…
64, hsv_h=0.064352126193425, hsv_s=0.7571331096437905, hsv_v=0.5516173922833338, degrees=19.30574922567848, translate=0.8658927712788298, scale=0.013264165788577932, shear=6.419793100999232, perspective=5.6658490276974894e-05, flipud=0.16651569652969733, fliplr=0.5611651702707788, mosaic=0.6040633286013631, mixup=0.45782953815941796, copy_paste=0.3921105754053378, auto_augment=randaugment, erasing=0.4, crop_fraction=1.0, cfg=None, tracker=botsort.yaml, save_dir=runs/detect/train[32m [repeated 7x across cluster][0m
[36m(_tune pid=123048)[0m   0                  -1  1       464  ultralytics.nn.modules.conv.Conv             [3, 16, 3, 2]                 
[36m(_tune pid=123048)[0m   1                  -1  1      4672  ultralytics.nn.modules.conv.Conv             [16, 32, 3, 2]                
[36m(_tune pid=123048)[0m   2                  -1  1      7360  ultralytics.nn.modules.block.C2f             [32, 32, 1, True]             
[36m(_tune pid=123048)[0m   3                  -1  1     18560  ultralytics.nn.modules.conv.Conv             [32, 64, 3, 2]                
[36m(_tune pid=123042)[0m   9                  -1  1    164608  ultralytics.nn.modules.block.SPPF            [256, 256, 5]                 
[36m(_tune pid=123042)[0m  10                  -1  1         0  torch.nn.modules.upsampling.Upsample         [None, 2, 'nearest']          
[36m(_tune pid=123042)[0m  11             [-1, 6]  1         0  ultralytics.nn.modules.conv.Concat           [1]                           
[36m(_tune pid=123042)[0m  13                  -1  1         0  torch.nn.modules.upsampling.Upsample         [None, 2, 'nearest']          
[36m(_tune pid=123042)[0m  14             [-1, 4]  1         0  ultralytics.nn.modules.conv.Concat           [1]                           
[36m(_tune pid=123042)[0m  17            [-1, 12]  1         0  ultralytics.nn.modules.conv.Concat           [1]                           
[36m(_tune pid=123046)[0m  22        [15, 18, 21]  1    751507  ultralytics.nn.modules.head.Detect           [1, [64, 128, 256]]           
[36m(_tune pid=123042)[0m Model summary: 225 layers, 3011043 parameters, 3011027 gradients, 8.2 GFLOPs
[36m(_tune pid=123042)[0m Transferred 319/355 items from pretrained weights
Trial status: 8 RUNNING | 2 PENDING
Current time: 2024-03-06 15:03:29. Total running time: 1min 30s
Logical resource usage: 64.0/64 CPUs, 0/1 GPUs (0.0/1.0 accelerator_type:A100)
╭───────
…
╰──────────────────────────────────────────────────────────────────────────────────────────────────────────────────────────────────────────────────────────────────────────────────────────────────────────────────────────────────────────────────────────────────────────────────────────────────────────────────╯
[36m(_tune pid=123046)[0m Freezing layer 'model.22.dfl.conv.weight'
[36m(_tune pid=123047)[0m Overriding model.yaml nc=80 with nc=1[32m [repeated 7x across cluster][0m
[36m(_tune pid=123048)[0m [32m [repeated 47x across cluster][0m
[36m(_tune pid=123047)[0m                    from  n    params  module                                       arguments                     [32m [repeated 7x across cluster][0m
[36m(_tune pid=123047)[0m  19                  -1  1    147712  ultralytics.nn.modules.conv.Conv             [128, 128, 3, 2]              [32m [repeated 53x across cluster][0m
[36m(_tune pid=123045)[0m   8                  -1  1    460288  ultralytics.nn.modules.block.C2f             [256, 256, 1, True]           [32m [repeated 31x across cluster][0m
[36m(_tune pid=123047)[0m   9                  -1  1    164608  ultralytics.nn.modules.block.SPPF            [256, 256, 5]                 [32m [repeated 7x across cluster][0m
[36m(_tune pid=123041)[0m  13                  -1  1         0  torch.nn.modules.upsampling.Upsample         [None, 2, 'nearest']          [32m [repeated 14x across cluster][0m
[36m(_tune pid=123047)[0m  20             [-1, 9]  1         0  ultralytics.nn.modules.conv.Concat           [1]                           [32m [repeated 29x across cluster][0m
[36m(_tune pid=123047)[0m  22        [15, 18, 21]  1    751507  ultralytics.nn.modules.head.Detect           [1, [64, 128, 256]]           [32m [repeated 7x across cluster][0m
[36m(_tune pid=123048)[0m Model summary: 225 layers, 3011043 parameters, 3011027 gradients, 8.2 GFLOPs[32m [repeated 7x across cluster][0m
[36m(_tune pid=123047)[0m Transferred 319/355 items from pretrained weights[32m [repeated 7x across cluster][0m
Trial status: 8 RUNNING | 2 PENDING
Current time: 2024-03-06 15:03:59. Total running time: 2min 0s
…
e=0.00019563003870576656, flipud=0.19110431684407092, fliplr=0.06068663399248364, mosaic=0.42544512299089865, mixup=0.7785880022798236, copy_paste=0.06337885356613204, auto_augment=randaugment, erasing=0.4, crop_fraction=1.0, cfg=None, tracker=botsort.yaml, save_dir=runs/detect/train
[36m(_tune pid=123045)[0m Overriding model.yaml nc=80 with nc=1
[36m(_tune pid=123045)[0m 
[36m(_tune pid=123045)[0m                    from  n    params  module                                       arguments                     
[36m(_tune pid=123045)[0m   0                  -1  1       464  ultralytics.nn.modules.conv.Conv             [3, 16, 3, 2]                 
[36m(_tune pid=123045)[0m   1                  -1  1      4672  ultralytics.nn.modules.conv.Conv             [16, 32, 3, 2]                
[36m(_tune pid=123045)[0m   2                  -1  1      7360  ultralytics.nn.modules.block.C2f             [32, 32, 1, True]             
[36m(_tune pid=123045)[0m   3                  -1  1     18560  ultralytics.nn.modules.conv.Conv             [32, 64, 3, 2]                
[36m(_tune pid=123045)[0m   4                  -1  2     49664  ultralytics.nn.modules.block.C2f             [64, 64, 2, True]             
[36m(_tune pid=123045)[0m   5                  -1  1     73984  ultralytics.nn.modules.conv.Conv             [64, 128, 3, 2]               
[36m(_tune pid=123045)[0m   9                  -1  1    164608  ultralytics.nn.modules.block.SPPF            [256, 256, 5]                 
[36m(_tune pid=123045)[0m  10                  -1  1         0  torch.nn.modules.upsampling.Upsample         [None, 2, 'nearest']          
[36m(_tune pid=123045)[0m  11             [-1, 6]  1         0  ultralytics.nn.modules.conv.Concat           [1]                           
[36m(_tune pid=123045)[0m  13                  -1  1         0  torch.nn.modules.upsampling.Upsample         [None, 2, 'nearest']          
[36m(_tune pid=123045)[0m  14             [-1, 4]  1         0  ultralytics.nn.modules.conv.Concat           [1]                           
[36m(_tune pid=123045)[0m  17            [-1, 12]  1         0  ultralytics.nn.modules.conv.Concat           [1]                           
[36m(_tune pid=123045)[0m  20             [-1, 9]  1         0  ultralytics.nn.modules.conv.Concat           [1]                           
[36m(_tune pid=123042)[0m  22        [15, 18, 21]  1    751507  ultralytics.nn.modules.head.Detect           [1, [64, 128, 256]]           
[36m(_tune pid=123042)[0m Model summary: 225 layers, 3011043 parameters, 3011027 gradients, 8.2 GFLOPs
[36m(_tune pid=123045)[0m Transferred 319/355 items from pretrained weights

Trial _tune_63f2e_00003 completed after 1 iterations at 2024-03-06 15:52:20. Total running time: 50min 21s
╭────────────────────────────────────────────╮
│ Trial _tune_63f2e_00003 result             │
…
3869428148162, fliplr=0.07389395980606062, mosaic=0.9417074433090628, mixup=0.013563503710513514, copy_paste=0.4396000909323151, auto_augment=randaugment, erasing=0.4, crop_fraction=1.0, cfg=None, tracker=botsort.yaml, save_dir=runs/detect/train
[36m(_tune pid=123042)[0m Overriding model.yaml nc=80 with nc=1
[36m(_tune pid=123045)[0m [32m [repeated 11x across cluster][0m
[36m(_tune pid=123042)[0m                    from  n    params  module                                       arguments                     
[36m(_tune pid=123042)[0m  19                  -1  1    147712  ultralytics.nn.modules.conv.Conv             [128, 128, 3, 2]              [32m [repeated 10x across cluster][0m
[36m(_tune pid=123045)[0m   8                  -1  1    460288  ultralytics.nn.modules.block.C2f             [256, 256, 1, True]           [32m [repeated 6x across cluster][0m
[36m(_tune pid=123042)[0m   9                  -1  1    164608  ultralytics.nn.modules.block.SPPF            [256, 256, 5]                 
[36m(_tune pid=123042)[0m  13                  -1  1         0  torch.nn.modules.upsampling.Upsample         [None, 2, 'nearest']          [32m [repeated 2x across cluster][0m
[36m(_tune pid=123042)[0m  20             [-1, 9]  1         0  ultralytics.nn.modules.conv.Concat           [1]                           [32m [repeated 4x across cluster][0m
[36m(_tune pid=123045)[0m  22        [15, 18, 21]  1    751507  ultralytics.nn.modules.head.Detect           [1, [64, 128, 256]]           
[36m(_tune pid=123045)[0m Model summary: 225 layers, 3011043 parameters, 3011027 gradients, 8.2 GFLOPs
[36m(_tune pid=123042)[0m Transferred 319/355 items from pretrained weights
[36m(_tune pid=123041)[0m Speed: 2.6ms preprocess, 870.4ms inference, 0.0ms loss, 127.4ms postprocess per image
[36m(_tune pid=123041)[0m Results saved to [1mruns/detect/train[0m
[36m(_tune pid=123045)[0m Freezing layer 'model.22.dfl.conv.weight'
…
