…
ve=0.0008750694188635855, flipud=0.8620320580921935, fliplr=0.053425050104573324, mosaic=0.007428415059743565, mixup=0.285969476338936, copy_paste=0.10654412354174858, auto_augment=randaugment, erasing=0.4, crop_fraction=1.0, cfg=None, tracker=botsort.yaml, save_dir=runs/detect/train
[36m(_tune pid=106707)[0m Overriding model.yaml nc=80 with nc=1
[36m(_tune pid=106707)[0m 
[36m(_tune pid=106707)[0m                    from  n    params  module                                       arguments                     
[36m(_tune pid=106707)[0m   0                  -1  1       464  ultralytics.nn.modules.conv.Conv             [3, 16, 3, 2]                 
[36m(_tune pid=106707)[0m   1                  -1  1      4672  ultralytics.nn.modules.conv.Conv             [16, 32, 3, 2]                
[36m(_tune pid=106707)[0m   2                  -1  1      7360  ultralytics.nn.modules.block.C2f             [32, 32, 1, True]             
[36m(_tune pid=106707)[0m   3                  -1  1     18560  ultralytics.nn.modules.conv.Conv             [32, 64, 3, 2]                
[36m(_tune pid=106707)[0m   4                  -1  2     49664  ultralytics.nn.modules.block.C2f             [64, 64, 2, True]             
[36m(_tune pid=106707)[0m   5                  -1  1     73984  ultralytics.nn.modules.conv.Conv             [64, 128, 3, 2]               
[36m(_tune pid=106707)[0m   6                  -1  2    197632  ultralytics.nn.modules.block.C2f             [128, 128, 2, True]           
[36m(_tune pid=106707)[0m   7                  -1  1    295424  ultralytics.nn.modules.conv.Conv             [128, 256, 3, 2]              
[36m(_tune pid=106707)[0m   8                  -1  1    460288  ultralytics.nn.modules.block.C2f             [256, 256, 1, True]           
[36m(_tune pid=106707)[0m   9                  -1  1    164608  ultralytics.nn.modules.block.SPPF            [256, 256, 5]                 
[36m(_tune pid=106707)[0m  10                  -1  1         0  torch.nn.modules.upsampling.Upsample         [None, 2, 'nearest']          
[36m(_tune pid=106707)[0m  11             [-1, 6]  1         0  ultralytics.nn.modules.conv.Concat           [1]                           
[36m(_tune pid=106707)[0m  13                  -1  1         0  torch.nn.modules.upsampling.Upsample         [None, 2, 'nearest']          
[36m(_tune pid=106707)[0m  14             [-1, 4]  1         0  ultralytics.nn.modules.conv.Concat           [1]                           
[36m(_tune pid=106707)[0m  17            [-1, 12]  1         0  ultralytics.nn.modules.conv.Concat           [1]                           
[36m(_tune pid=106707)[0m  20             [-1, 9]  1         0  ultralytics.nn.modules.conv.Concat           [1]                           
[36m(_tune pid=106707)[0m  22        [15, 18, 21]  1    751507  ultralytics.nn.modules.head.Detect           [1, [64, 128, 256]]           
[36m(_tune pid=106704)[0m Model summary: 225 layers, 3011043 parameters, 3011027 gradients, 8.2 GFLOPs
[36m(_tune pid=106707)[0m Transferred 319/355 items from pretrained weights
[36m(_tune pid=106710)[0m Freezing layer 'model.22.dfl.conv.weight'
[36m(_tune pid=106710)[0m Plotting labels to runs/detect/train/labels.jpg... 
[36m(_tune pid=106702)[0m [34m[1moptimizer:[0m 'optimizer=auto' found, ignoring 'lr0=0.09607630128519738' and 'momentum=0.781958610499303' and determining best 'optimizer', 'lr0' and 'momentum' automatically... 
…
9986103601689, auto_augment=randaugment, erasing=0.4, crop_fraction=1.0, cfg=None, tracker=botsort.yaml, save_dir=runs/detect/train[32m [repeated 7x across cluster][0m
[36m(_tune pid=106711)[0m Overriding model.yaml nc=80 with nc=1[32m [repeated 7x across cluster][0m
[36m(_tune pid=106701)[0m [32m [repeated 55x across cluster][0m
[36m(_tune pid=106711)[0m                    from  n    params  module                                       arguments                     [32m [repeated 7x across cluster][0m
[36m(_tune pid=106711)[0m  19                  -1  1    147712  ultralytics.nn.modules.conv.Conv             [128, 128, 3, 2]              [32m [repeated 51x across cluster][0m
[36m(_tune pid=106711)[0m   8                  -1  1    460288  ultralytics.nn.modules.block.C2f             [256, 256, 1, True]           [32m [repeated 28x across cluster][0m
[36m(_tune pid=106711)[0m   9                  -1  1    164608  ultralytics.nn.modules.block.SPPF            [256, 256, 5]                 [32m [repeated 7x across cluster][0m
[36m(_tune pid=106711)[0m  13                  -1  1         0  torch.nn.modules.upsampling.Upsample         [None, 2, 'nearest']          [32m [repeated 14x across cluster][0m
[36m(_tune pid=106711)[0m  20             [-1, 9]  1         0  ultralytics.nn.modules.conv.Concat           [1]                           [32m [repeated 28x across cluster][0m
[36m(_tune pid=106711)[0m  22        [15, 18, 21]  1    751507  ultralytics.nn.modules.head.Detect           [1, [64, 128, 256]]           [32m [repeated 7x across cluster][0m
[36m(_tune pid=106711)[0m Model summary: 225 layers, 3011043 parameters, 3011027 gradients, 8.2 GFLOPs[32m [repeated 7x across cluster][0m
[36m(_tune pid=106711)[0m Transferred 319/355 items from pretrained weights[32m [repeated 7x across cluster][0m
[36m(_tune pid=106707)[0m Freezing layer 'model.22.dfl.conv.weight'[32m [repeated 7x across cluster][0m
…
r=6.845218469321219, perspective=0.00015544709163587835, flipud=0.49156067547510607, fliplr=0.29801924159181004, mosaic=0.3387586850581631, mixup=0.5409460245787213, copy_paste=0.5499338212269758, auto_augment=randaugment, erasing=0.4, crop_fraction=1.0, cfg=None, tracker=botsort.yaml, save_dir=runs/detect/train
[36m(_tune pid=106711)[0m Overriding model.yaml nc=80 with nc=1
[36m(_tune pid=106711)[0m                    from  n    params  module                                       arguments                     
[36m(_tune pid=106711)[0m   0                  -1  1       464  ultralytics.nn.modules.conv.Conv             [3, 16, 3, 2]                 
[36m(_tune pid=106711)[0m   1                  -1  1      4672  ultralytics.nn.modules.conv.Conv             [16, 32, 3, 2]                
[36m(_tune pid=106711)[0m   2                  -1  1      7360  ultralytics.nn.modules.block.C2f             [32, 32, 1, True]             
[36m(_tune pid=106711)[0m   3                  -1  1     18560  ultralytics.nn.modules.conv.Conv             [32, 64, 3, 2]                
[36m(_tune pid=106711)[0m   4                  -1  2     49664  ultralytics.nn.modules.block.C2f             [64, 64, 2, True]             
[36m(_tune pid=106711)[0m   5                  -1  1     73984  ultralytics.nn.modules.conv.Conv             [64, 128, 3, 2]               
[36m(_tune pid=106711)[0m   6                  -1  2    197632  ultralytics.nn.modules.block.C2f             [128, 128, 2, True]           
[36m(_tune pid=106711)[0m   7                  -1  1    295424  ultralytics.nn.modules.conv.Conv             [128, 256, 3, 2]              
[36m(_tune pid=106711)[0m   8                  -1  1    460288  ultralytics.nn.modules.block.C2f             [256, 256, 1, True]           
[36m(_tune pid=106711)[0m   9                  -1  1    164608  ultralytics.nn.modules.block.SPPF            [256, 256, 5]                 
[36m(_tune pid=106711)[0m  10                  -1  1         0  torch.nn.modules.upsampling.Upsample         [None, 2, 'nearest']          
[36m(_tune pid=106711)[0m  11             [-1, 6]  1         0  ultralytics.nn.modules.conv.Concat           [1]                           
[36m(_tune pid=106711)[0m  13                  -1  1         0  torch.nn.modules.upsampling.Upsample         [None, 2, 'nearest']          
[36m(_tune pid=106711)[0m  14             [-1, 4]  1         0  ultralytics.nn.modules.conv.Concat           [1]                           
[36m(_tune pid=106711)[0m  16                  -1  1     36992  ultralytics.nn.modules.conv.Conv             [64, 64, 3, 2]                
[36m(_tune pid=106711)[0m  17            [-1, 12]  1         0  ultralytics.nn.modules.conv.Concat           [1]                           
[36m(_tune pid=106711)[0m  19                  -1  1    147712  ultralytics.nn.modules.conv.Conv             [128, 128, 3, 2]              
[36m(_tune pid=106711)[0m  20             [-1, 9]  1         0  ultralytics.nn.modules.conv.Concat           [1]                           
[36m(_tune pid=106711)[0m  22        [15, 18, 21]  1    751507  ultralytics.nn.modules.head.Detect           [1, [64, 128, 256]]           
[36m(_tune pid=106711)[0m Model summary: 225 layers, 3011043 parameters, 3011027 gradients, 8.2 GFLOPs
[36m(_tune pid=106711)[0m Transferred 319/355 items from pretrained weights
[36m(_tune pid=106711)[0m Freezing layer 'model.22.dfl.conv.weight'
[36m(_tune pid=106711)[0m Plotting labels to runs/detect/train/labels.jpg... 
[36m(_tune pid=106711)[0m [34m[1moptimizer:[0m 'optimizer=auto' found, ignoring 'lr0=0.05812043267775776' and 'momentum=0.6227127775016513' and determining best 'optimizer', 'lr0' and 'momentum' automatically... 
…
hear=9.034542586929785, perspective=0.0002091200850452316, flipud=0.37737999612193485, fliplr=0.9700621320176886, mosaic=0.573269512773059, mixup=0.4792659269817423, copy_paste=0.9517025165510148, auto_augment=randaugment, erasing=0.4, crop_fraction=1.0, cfg=None, tracker=botsort.yaml, save_dir=runs/detect/train
[36m(_tune pid=106703)[0m Overriding model.yaml nc=80 with nc=1
[36m(_tune pid=106703)[0m                    from  n    params  module                                       arguments                     
[36m(_tune pid=106703)[0m  19                  -1  1    147712  ultralytics.nn.modules.conv.Conv             [128, 128, 3, 2]              [32m [repeated 7x across cluster][0m
[36m(_tune pid=106703)[0m   8                  -1  1    460288  ultralytics.nn.modules.block.C2f             [256, 256, 1, True]           [32m [repeated 4x across cluster][0m
[36m(_tune pid=106703)[0m   9                  -1  1    164608  ultralytics.nn.modules.block.SPPF            [256, 256, 5]                 
[36m(_tune pid=106703)[0m  13                  -1  1         0  torch.nn.modules.upsampling.Upsample         [None, 2, 'nearest']          [32m [repeated 2x across cluster][0m
[36m(_tune pid=106703)[0m  20             [-1, 9]  1         0  ultralytics.nn.modules.conv.Concat           [1]                           [32m [repeated 4x across cluster][0m
[36m(_tune pid=106703)[0m  22        [15, 18, 21]  1    751507  ultralytics.nn.modules.head.Detect           [1, [64, 128, 256]]           
[36m(_tune pid=106703)[0m Model summary: 225 layers, 3011043 parameters, 3011027 gradients, 8.2 GFLOPs
[36m(_tune pid=106703)[0m Transferred 319/355 items from pretrained weights
[36m(_tune pid=106703)[0m Freezing layer 'model.22.dfl.conv.weight'
[36m(_tune pid=106703)[0m Plotting labels to runs/detect/train/labels.jpg... 
[36m(_tune pid=106703)[0m [34m[1moptimizer:[0m 'optimizer=auto' found, ignoring 'lr0=0.018953935738983678' and 'momentum=0.6176397242321043' and determining best 'optimizer', 'lr0' and 'momentum' automatically... 
…
