…
rspective=0.0009553014474710859, flipud=0.9645875883387242, fliplr=0.2368907737688103, mosaic=0.8976952510199518, mixup=0.027916109480558338, copy_paste=0.772152903724479, auto_augment=randaugment, erasing=0.4, crop_fraction=1.0, cfg=None, tracker=botsort.yaml, save_dir=runs/detect/train
[36m(_tune pid=91681)[0m Overriding model.yaml nc=80 with nc=1
[36m(_tune pid=91681)[0m 
[36m(_tune pid=91681)[0m                    from  n    params  module                                       arguments                     
[36m(_tune pid=91681)[0m   0                  -1  1       928  ultralytics.nn.modules.conv.Conv             [3, 32, 3, 2]                 
[36m(_tune pid=91681)[0m   1                  -1  1     18560  ultralytics.nn.modules.conv.Conv             [32, 64, 3, 2]                
[36m(_tune pid=91681)[0m   2                  -1  1     29056  ultralytics.nn.modules.block.C2f             [64, 64, 1, True]             
[36m(_tune pid=91681)[0m   3                  -1  1     73984  ultralytics.nn.modules.conv.Conv             [64, 128, 3, 2]               
[36m(_tune pid=91681)[0m   4                  -1  2    197632  ultralytics.nn.modules.block.C2f             [128, 128, 2, True]           
[36m(_tune pid=91681)[0m   5                  -1  1    295424  ultralytics.nn.modules.conv.Conv             [128, 256, 3, 2]              
[36m(_tune pid=91681)[0m   6                  -1  2    788480  ultralytics.nn.modules.block.C2f             [256, 256, 2, True]           
[36m(_tune pid=91681)[0m   7                  -1  1   1180672  ultralytics.nn.modules.conv.Conv             [256, 512, 3, 2]              
[36m(_tune pid=91681)[0m   8                  -1  1   1838080  ultralytics.nn.modules.block.C2f             [512, 512, 1, True]           
[36m(_tune pid=91681)[0m   9                  -1  1    656896  ultralytics.nn.modules.block.SPPF            [512, 512, 5]                 
[36m(_tune pid=91681)[0m  10                  -1  1         0  torch.nn.modules.upsampling.Upsample         [None, 2, 'nearest']          
[36m(_tune pid=91681)[0m  11             [-1, 6]  1         0  ultralytics.nn.modules.conv.Concat           [1]                           
[36m(_tune pid=91681)[0m  12                  -1  1    591360  ultralytics.nn.modules.block.C2f             [768, 256, 1]                 
[36m(_tune pid=91681)[0m  13                  -1  1         0  torch.nn.modules.upsampling.Upsample         [None, 2, 'nearest']          
[36m(_tune pid=91681)[0m  14             [-1, 4]  1         0  ultralytics.nn.modules.conv.Concat           [1]                           
[36m(_tune pid=91681)[0m  15                  -1  1    148224  ultralytics.nn.modules.block.C2f             [384, 128, 1]                 
[36m(_tune pid=91681)[0m  16                  -1  1    147712  ultralytics.nn.modules.conv.Conv             [128, 128, 3, 2]              
[36m(_tune pid=91681)[0m  17            [-1, 12]  1         0  ultralytics.nn.modules.conv.Concat           [1]                           
[36m(_tune pid=91681)[0m  18                  -1  1    493056  ultralytics.nn.modules.block.C2f             [384, 256, 1]                 
[36m(_tune pid=91681)[0m  22        [15, 18, 21]  1   2116435  ultralytics.nn.modules.head.Detect           [1, [128, 256, 512]]          
[36m(_tune pid=91681)[0m Model summary: 225 layers, 11135987 parameters, 11135971 gradients, 28.6 GFLOPs
[36m(_tune pid=91681)[0m Transferred 349/355 items from pretrained weights
Trial status: 8 RUNNING | 2 PENDING
Current time: 2024-02-19 23:28:25. Total running time: 3min 0s
Logical resource usage: 64.0/64 CPUs, 0/1 GPUs (0.0/1.0 accelerator_type:A100)
╭───────
…
=0.5989586619824911, fliplr=0.21372594737779982, mosaic=0.6020539998454446, mixup=0.9652994435466643, copy_paste=0.07312685540038577, auto_augment=randaugment, erasing=0.4, crop_fraction=1.0, cfg=None, tracker=botsort.yaml, save_dir=runs/detect/train
[36m(_tune pid=91682)[0m Overriding model.yaml nc=80 with nc=1
[36m(_tune pid=91682)[0m [32m [repeated 8x across cluster][0m
[36m(_tune pid=91682)[0m                    from  n    params  module                                       arguments                     
[36m(_tune pid=91682)[0m  19                  -1  1    590336  ultralytics.nn.modules.conv.Conv             [256, 256, 3, 2]              [32m [repeated 8x across cluster][0m
[36m(_tune pid=91682)[0m   8                  -1  1   1838080  ultralytics.nn.modules.block.C2f             [512, 512, 1, True]           [32m [repeated 4x across cluster][0m
[36m(_tune pid=91682)[0m   9                  -1  1    656896  ultralytics.nn.modules.block.SPPF            [512, 512, 5]                 
[36m(_tune pid=91682)[0m  13                  -1  1         0  torch.nn.modules.upsampling.Upsample         [None, 2, 'nearest']          [32m [repeated 2x across cluster][0m
[36m(_tune pid=91682)[0m  20             [-1, 9]  1         0  ultralytics.nn.modules.conv.Concat           [1]                           [32m [repeated 5x across cluster][0m
[36m(_tune pid=91682)[0m  22        [15, 18, 21]  1   2116435  ultralytics.nn.modules.head.Detect           [1, [128, 256, 512]]          
[36m(_tune pid=91682)[0m Model summary: 225 layers, 11135987 parameters, 11135971 gradients, 28.6 GFLOPs
[36m(_tune pid=91682)[0m Transferred 349/355 items from pretrained weights
[36m(_tune pid=91680)[0m [34m[1mengine/trainer: [0mtask=detect, mode=train, model=yolov8s.pt, data=custom.yaml, epochs=30, time=None, patience=50, batch=16, imgsz=640, save=True, sa
…
ear=3.999580315444663, perspective=1.799217856446489e-05, flipud=0.15801279276997715, fliplr=0.9438585231228689, mosaic=0.14190744733509542, mixup=0.23310798185493553, copy_paste=0.33150587712231916, auto_augment=randaugment, erasing=0.4, crop_fraction=1.0, cfg=None, tracker=botsort.yaml, save_dir=runs/detect/train
[36m(_tune pid=91680)[0m Overriding model.yaml nc=80 with nc=1
[36m(_tune pid=91680)[0m                    from  n    params  module                                       arguments                     
[36m(_tune pid=91680)[0m   9                  -1  1    656896  ultralytics.nn.modules.block.SPPF            [512, 512, 5]                 
[36m(_tune pid=91680)[0m  22        [15, 18, 21]  1   2116435  ultralytics.nn.modules.head.Detect           [1, [128, 256, 512]]          
[36m(_tune pid=91680)[0m Model summary: 225 layers, 11135987 parameters, 11135971 gradients, 28.6 GFLOPs
[36m(_tune pid=91684)[0m Transferred 349/355 items from pretrained weights
[36m(_tune pid=91689)[0m Ultralytics YOLOv8.1.13 🚀 Python-3.8.18 torch-2.1.1+cu121 CPU (AMD EPYC 7543 32-Core Processor)[32m [repeated 4x across cluster][0m
[36m(_tune pid=91679)[0m [32m [repeated 24x across cluster][0m
[36m(_tune pid=91679)[0m  19                  -1  1    590336  ultralytics.nn.modules.conv.Conv             [256, 256, 3, 2]              [32m [repeated 28x across cluster][0m
[36m(_tune pid=91679)[0m   8                  -1  1   1838080  ultralytics.nn.modules.block.C2f             [512, 512, 1, True]           [32m [repeated 16x across cluster][0m
[36m(_tune pid=91679)[0m  13                  -1  1         0  torch.nn.modules.upsampling.Upsample         [None, 2, 'nearest']          [32m [repeated 8x across cluster][0m
[36m(_tune pid=91679)[0m  20             [-1, 9]  1         0  ultralytics.nn.modules.conv.Concat           [1]                           [32m [repeated 16x across cluster][0m
[36m(_tune pid=91679)[0m [34m[1mengine/trainer: [0mtask=detect, mode=train, model=yolov8s.pt, data=custom.yaml, epochs=30, time=None, patience=50, batch=16, imgsz=640, save=True, save_period=-1, cache=False, device=None, workers=8, project=None, name=train, exist_ok=False, pretrained=True, optimizer=auto, verbose=True, seed=
…
ear=6.864248839027496, perspective=6.833417864406455e-05, flipud=0.46955816640736237, fliplr=0.8322581361509371, mosaic=0.14216124043534428, mixup=0.2870889040782485, copy_paste=0.022642408974213324, auto_augment=randaugment, erasing=0.4, crop_fraction=1.0, cfg=None, tracker=botsort.yaml, save_dir=runs/detect/train
[36m(_tune pid=91681)[0m Overriding model.yaml nc=80 with nc=1
[36m(_tune pid=91681)[0m                    from  n    params  module                                       arguments                     
[36m(_tune pid=91681)[0m   0                  -1  1       928  ultralytics.nn.modules.conv.Conv             [3, 32, 3, 2]                 
[36m(_tune pid=91681)[0m   1                  -1  1     18560  ultralytics.nn.modules.conv.Conv             [32, 64, 3, 2]                
[36m(_tune pid=91681)[0m   2                  -1  1     29056  ultralytics.nn.modules.block.C2f             [64, 64, 1, True]             
[36m(_tune pid=91681)[0m   3                  -1  1     73984  ultralytics.nn.modules.conv.Conv             [64, 128, 3, 2]               
[36m(_tune pid=91681)[0m   4                  -1  2    197632  ultralytics.nn.modules.block.C2f             [128, 128, 2, True]           
[36m(_tune pid=91681)[0m   5                  -1  1    295424  ultralytics.nn.modules.conv.Conv             [128, 256, 3, 2]              
[36m(_tune pid=91681)[0m   6                  -1  2    788480  ultralytics.nn.modules.block.C2f             [256, 256, 2, True]           
[36m(_tune pid=91681)[0m   7                  -1  1   1180672  ultralytics.nn.modules.conv.Conv             [256, 512, 3, 2]              
[36m(_tune pid=91681)[0m   8                  -1  1   1838080  ultralytics.nn.modules.block.C2f             [512, 512, 1, True]           
[36m(_tune pid=91681)[0m   9                  -1  1    656896  ultralytics.nn.modules.block.SPPF            [512, 512, 5]                 
[36m(_tune pid=91681)[0m  10                  -1  1         0  torch.nn.modules.upsampling.Upsample         [None, 2, 'nearest']          
[36m(_tune pid=91681)[0m  11             [-1, 6]  1         0  ultralytics.nn.modules.conv.Concat           [1]                           
[36m(_tune pid=91681)[0m  13                  -1  1         0  torch.nn.modules.upsampling.Upsample         [None, 2, 'nearest']          
[36m(_tune pid=91681)[0m  14             [-1, 4]  1         0  ultralytics.nn.modules.conv.Concat           [1]                           
[36m(_tune pid=91681)[0m  16                  -1  1    147712  ultralytics.nn.modules.conv.Conv             [128, 128, 3, 2]              
[36m(_tune pid=91681)[0m  17            [-1, 12]  1         0  ultralytics.nn.modules.conv.Concat           [1]                           
[36m(_tune pid=91681)[0m  19                  -1  1    590336  ultralytics.nn.modules.conv.Conv             [256, 256, 3, 2]              
[36m(_tune pid=91681)[0m  20             [-1, 9]  1         0  ultralytics.nn.modules.conv.Concat           [1]                           
[36m(_tune pid=91681)[0m  22        [15, 18, 21]  1   2116435  ultralytics.nn.modules.head.Detect           [1, [128, 256, 512]]          
[36m(_tune pid=91681)[0m Model summary: 225 layers, 11135987 parameters, 11135971 gradients, 28.6 GFLOPs
[36m(_tune pid=91681)[0m Transferred 349/355 items from pretrained weights
[36m(_tune pid=91682)[0m                    all         15        218      0.182      0.432       0.16     0.0459[32m [repeated 2x across cluster][0m
[36m(_tune pid=91681)[0m [32m [repeated 10x across cluster][0m
…
rspective=0.0005540506012203682, flipud=0.3325518863289889, fliplr=0.3143180885860426, mosaic=0.4439551859487052, mixup=0.39524116606648396, copy_paste=0.2796295275527252, auto_augment=randaugment, erasing=0.4, crop_fraction=1.0, cfg=None, tracker=botsort.yaml, save_dir=runs/detect/train
[36m(_tune pid=91679)[0m Overriding model.yaml nc=80 with nc=1
[36m(_tune pid=91679)[0m 
[36m(_tune pid=91679)[0m                    from  n    params  module                                       arguments                     
[36m(_tune pid=91679)[0m   0                  -1  1       928  ultralytics.nn.modules.conv.Conv             [3, 32, 3, 2]                 
[36m(_tune pid=91679)[0m   1                  -1  1     18560  ultralytics.nn.modules.conv.Conv             [32, 64, 3, 2]                
[36m(_tune pid=91679)[0m   2                  -1  1     29056  ultralytics.nn.modules.block.C2f             [64, 64, 1, True]             
[36m(_tune pid=91679)[0m   3                  -1  1     73984  ultralytics.nn.modules.conv.Conv             [64, 128, 3, 2]               
[36m(_tune pid=91679)[0m   4                  -1  2    197632  ultralytics.nn.modules.block.C2f             [128, 128, 2, True]           
[36m(_tune pid=91679)[0m   5                  -1  1    295424  ultralytics.nn.modules.conv.Conv             [128, 256, 3, 2]              
[36m(_tune pid=91679)[0m   6                  -1  2    788480  ultralytics.nn.modules.block.C2f             [256, 256, 2, True]           
[36m(_tune pid=91679)[0m   7                  -1  1   1180672  ultralytics.nn.modules.conv.Conv             [256, 512, 3, 2]              
[36m(_tune pid=91679)[0m   8                  -1  1   1838080  ultralytics.nn.modules.block.C2f             [512, 512, 1, True]           
[36m(_tune pid=91679)[0m   9                  -1  1    656896  ultralytics.nn.modules.block.SPPF            [512, 512, 5]                 
[36m(_tune pid=91679)[0m  10                  -1  1         0  torch.nn.modules.upsampling.Upsample         [None, 2, 'nearest']          
[36m(_tune pid=91679)[0m  11             [-1, 6]  1         0  ultralytics.nn.modules.conv.Concat           [1]                           
[36m(_tune pid=91679)[0m  12                  -1  1    591360  ultralytics.nn.modules.block.C2f             [768, 256, 1]                 
[36m(_tune pid=91679)[0m  13                  -1  1         0  torch.nn.modules.upsampling.Upsample         [None, 2, 'nearest']          
[36m(_tune pid=91679)[0m  14             [-1, 4]  1         0  ultralytics.nn.modules.conv.Concat           [1]                           
[36m(_tune pid=91679)[0m  15                  -1  1    148224  ultralytics.nn.modules.block.C2f             [384, 128, 1]                 
[36m(_tune pid=91679)[0m  16                  -1  1    147712  ultralytics.nn.modules.conv.Conv             [128, 128, 3, 2]              
[36m(_tune pid=91679)[0m  17            [-1, 12]  1         0  ultralytics.nn.modules.conv.Concat           [1]                           
[36m(_tune pid=91679)[0m  18                  -1  1    493056  ultralytics.nn.modules.block.C2f             [384, 256, 1]                 
[36m(_tune pid=91679)[0m  19                  -1  1    590336  ultralytics.nn.modules.conv.Conv             [256, 256, 3, 2]              
[36m(_tune pid=91679)[0m  20             [-1, 9]  1         0  ultralytics.nn.modules.conv.Concat           [1]                           
[36m(_tune pid=91679)[0m  21                  -1  1   1969152  ultralytics.nn.modules.block.C2f             [768, 512, 1]                 
[36m(_tune pid=91679)[0m  22        [15, 18, 21]  1   2116435  ultralytics.nn.modules.head.Detect           [1, [128, 256, 512]]          
[36m(_tune pid=91679)[0m Model summary: 225 layers, 11135987 parameters, 11135971 gradients, 28.6 GFLOPs
[36m(_tune pid=91679)[0m 
[36m(_tune pid=91679)[0m Transferred 349/355 items from pretrained weights
[36m(_tune pid=91679)[0m Freezing layer 'model.22.dfl.conv.weight'
[36m(_tune pid=91679)[0m Plotting labels to runs/detect/train/labels.jpg... 
[36m(_tune pid=91679)[0m [34m[1moptimizer:[0m 'optimizer=auto' found, ignoring 'lr0=0.047841494345503575' and 'momentum=0.7441230802643446' and determining best 'optimizer', 'lr0' and 'momentum' automatically... 
…
