…
ctive=0.0004180538368304803, flipud=0.5856708989536826, fliplr=0.5890843614481098, mosaic=0.3493362811652907, mixup=0.8142683365797472, copy_paste=0.06948483187454979, auto_augment=randaugment, erasing=0.4, crop_fraction=1.0, cfg=None, tracker=botsort.yaml, save_dir=runs/detect/train
[36m(_tune pid=120227)[0m Overriding model.yaml nc=80 with nc=1
[36m(_tune pid=120227)[0m 
[36m(_tune pid=120227)[0m                    from  n    params  module                                       arguments                     
[36m(_tune pid=120227)[0m   0                  -1  1      1856  ultralytics.nn.modules.conv.Conv             [3, 64, 3, 2]                 
[36m(_tune pid=120227)[0m   1                  -1  1     73984  ultralytics.nn.modules.conv.Conv             [64, 128, 3, 2]               
[36m(_tune pid=120227)[0m   2                  -1  3    279808  ultralytics.nn.modules.block.C2f             [128, 128, 3, True]           
[36m(_tune pid=120227)[0m   3                  -1  1    295424  ultralytics.nn.modules.conv.Conv             [128, 256, 3, 2]              
[36m(_tune pid=120227)[0m   4                  -1  6   2101248  ultralytics.nn.modules.block.C2f             [256, 256, 6, True]           
[36m(_tune pid=120227)[0m   5                  -1  1   1180672  ultralytics.nn.modules.conv.Conv             [256, 512, 3, 2]              
[36m(_tune pid=120227)[0m   6                  -1  6   8396800  ultralytics.nn.modules.block.C2f             [512, 512, 6, True]           
[36m(_tune pid=120227)[0m   7                  -1  1   2360320  ultralytics.nn.modules.conv.Conv             [512, 512, 3, 2]              
[36m(_tune pid=120227)[0m   9                  -1  1    656896  ultralytics.nn.modules.block.SPPF            [512, 512, 5]                 
[36m(_tune pid=120227)[0m  10                  -1  1         0  torch.nn.modules.upsampling.Upsample         [None, 2, 'nearest']          
[36m(_tune pid=120227)[0m  11             [-1, 6]  1         0  ultralytics.nn.modules.conv.Concat           [1]                           
[36m(_tune pid=120227)[0m  13                  -1  1         0  torch.nn.modules.upsampling.Upsample         [None, 2, 'nearest']          
[36m(_tune pid=120227)[0m  14             [-1, 4]  1         0  ultralytics.nn.modules.conv.Concat           [1]                           
[36m(_tune pid=120227)[0m  17            [-1, 12]  1         0  ultralytics.nn.modules.conv.Concat           [1]                           
[36m(_tune pid=120227)[0m  20             [-1, 9]  1         0  ultralytics.nn.modules.conv.Concat           [1]                           
[36m(_tune pid=120227)[0m  22        [15, 18, 21]  1   5583571  ultralytics.nn.modules.head.Detect           [1, [256, 512, 512]]          
[36m(_tune pid=120227)[0m Model summary: 365 layers, 43630611 parameters, 43630595 gradients, 165.4 GFLOPs
[36m(_tune pid=120414)[0m Transferred 589/595 items from pretrained weights
[36m(_tune pid=120230)[0m Freezing layer 'model.22.dfl.conv.weight'
[36m(_tune pid=120390)[0m New https://pypi.org/project/ultralytics/8.1.16 available 😃 Update with 'pip install -U ultralytics'[32m [repeated 7x across cluster] (Ray deduplicates logs by default. Set RAY_DEDUP_LOGS=0 to disable log deduplication, or see https://docs.ray.io/en/master/ray-observability/ray-logging.html#log-deduplication for more options.)[0m
…
e, tracker=botsort.yaml, save_dir=runs/detect/train[32m [repeated 7x across cluster][0m
[36m(_tune pid=120230)[0m Plotting labels to runs/detect/train/labels.jpg... 
[36m(_tune pid=120390)[0m Overriding model.yaml nc=80 with nc=1[32m [repeated 7x across cluster][0m
[36m(_tune pid=120390)[0m [32m [repeated 47x across cluster][0m
[36m(_tune pid=120390)[0m                    from  n    params  module                                       arguments                     [32m [repeated 7x across cluster][0m
[36m(_tune pid=120226)[0m  19                  -1  1   2360320  ultralytics.nn.modules.conv.Conv             [512, 512, 3, 2]              [32m [repeated 51x across cluster][0m
[36m(_tune pid=120390)[0m   8                  -1  3   4461568  ultralytics.nn.modules.block.C2f             [512, 512, 3, True]           [32m [repeated 29x across cluster][0m
[36m(_tune pid=120390)[0m   9                  -1  1    656896  ultralytics.nn.modules.block.SPPF            [512, 512, 5]                 [32m [repeated 7x across cluster][0m
[36m(_tune pid=120390)[0m  13                  -1  1         0  torch.nn.modules.upsampling.Upsample         [None, 2, 'nearest']          [32m [repeated 14x across cluster][0m
[36m(_tune pid=120226)[0m  20             [-1, 9]  1         0  ultralytics.nn.modules.conv.Concat           [1]                           [32m [repeated 28x across cluster][0m
[36m(_tune pid=120390)[0m  22        [15, 18, 21]  1   5583571  ultralytics.nn.modules.head.Detect           [1, [256, 512, 512]]          [32m [repeated 7x across cluster][0m
[36m(_tune pid=120230)[0m [34m[1moptimizer:[0m 'optimizer=auto' found, ignoring 'lr0=0.012222856576657339' and 'momentum=0.9158714445447321' and determining best 'optimizer', 'lr0' and 'momentum' automatically... 
[36m(_tune pid=120230)[0m [34m[1moptimizer:[0m AdamW(lr=0.002, momentum=0.9) with parameter groups 97 weight(decay=0.0), 104 weight(decay=0.0009208534748943295), 103 bias(decay=0.0)
…
ive=0.0006911341517838568, flipud=0.889382976606186, fliplr=0.33237334622611636, mosaic=0.8938025866004808, mixup=0.06452683160904249, copy_paste=0.024551758053997896, auto_augment=randaugment, erasing=0.4, crop_fraction=1.0, cfg=None, tracker=botsort.yaml, save_dir=runs/detect/train
[36m(_tune pid=123660)[0m Overriding model.yaml nc=80 with nc=1
[36m(_tune pid=123660)[0m 
[36m(_tune pid=123660)[0m                    from  n    params  module                                       arguments                     
[36m(_tune pid=123660)[0m   0                  -1  1      1856  ultralytics.nn.modules.conv.Conv             [3, 64, 3, 2]                 
[36m(_tune pid=123660)[0m   1                  -1  1     73984  ultralytics.nn.modules.conv.Conv             [64, 128, 3, 2]               
[36m(_tune pid=123660)[0m   2                  -1  3    279808  ultralytics.nn.modules.block.C2f             [128, 128, 3, True]           
[36m(_tune pid=123660)[0m   3                  -1  1    295424  ultralytics.nn.modules.conv.Conv             [128, 256, 3, 2]              
[36m(_tune pid=123660)[0m   4                  -1  6   2101248  ultralytics.nn.modules.block.C2f             [256, 256, 6, True]           
[36m(_tune pid=123660)[0m   5                  -1  1   1180672  ultralytics.nn.modules.conv.Conv             [256, 512, 3, 2]              
[36m(_tune pid=123660)[0m   6                  -1  6   8396800  ultralytics.nn.modules.block.C2f             [512, 512, 6, True]           
[36m(_tune pid=123660)[0m   7                  -1  1   2360320  ultralytics.nn.modules.conv.Conv             [512, 512, 3, 2]              
[36m(_tune pid=123660)[0m   8                  -1  3   4461568  ultralytics.nn.modules.block.C2f             [512, 512, 3, True]           
[36m(_tune pid=123660)[0m   9                  -1  1    656896  ultralytics.nn.modules.block.SPPF            [512, 512, 5]                 
[36m(_tune pid=123660)[0m  10                  -1  1         0  torch.nn.modules.upsampling.Upsample         [None, 2, 'nearest']          
[36m(_tune pid=123660)[0m  11             [-1, 6]  1         0  ultralytics.nn.modules.conv.Concat           [1]                           
[36m(_tune pid=123660)[0m  12                  -1  3   4723712  ultralytics.nn.modules.block.C2f             [1024, 512, 3]                
[36m(_tune pid=123660)[0m  13                  -1  1         0  torch.nn.modules.upsampling.Upsample         [None, 2, 'nearest']          
[36m(_tune pid=123660)[0m  14             [-1, 4]  1         0  ultralytics.nn.modules.conv.Concat           [1]                           
[36m(_tune pid=123660)[0m  15                  -1  3   1247744  ultralytics.nn.modules.block.C2f             [768, 256, 3]                 
[36m(_tune pid=123660)[0m  16                  -1  1    590336  ultralytics.nn.modules.conv.Conv             [256, 256, 3, 2]              
[36m(_tune pid=123660)[0m  17            [-1, 12]  1         0  ultralytics.nn.modules.conv.Concat           [1]                           
[36m(_tune pid=123660)[0m  18                  -1  3   4592640  ultralytics.nn.modules.block.C2f             [768, 512, 3]                 
[36m(_tune pid=123660)[0m  19                  -1  1   2360320  ultralytics.nn.modules.conv.Conv             [512, 512, 3, 2]              
[36m(_tune pid=123660)[0m  20             [-1, 9]  1         0  ultralytics.nn.modules.conv.Concat           [1]                           
[36m(_tune pid=123660)[0m  21                  -1  3   4723712  ultralytics.nn.modules.block.C2f             [1024, 512, 3]                
[36m(_tune pid=123660)[0m  22        [15, 18, 21]  1   5583571  ultralytics.nn.modules.head.Detect           [1, [256, 512, 512]]          
[36m(_tune pid=123660)[0m Model summary: 365 layers, 43630611 parameters, 43630595 gradients, 165.4 GFLOPs
[36m(_tune pid=123660)[0m 
[36m(_tune pid=123660)[0m Transferred 589/595 items from pretrained weights
[36m(_tune pid=123660)[0m Freezing layer 'model.22.dfl.conv.weight'
[36m(_tune pid=123660)[0m Plotting labels to runs/detect/train/labels.jpg... 
[36m(_tune pid=123660)[0m [34m[1moptimizer:[0m 'optimizer=auto' found, ignoring 'lr0=0.0457062519243008' and 'momentum=0.6327742617642996' and determining best 'optimizer', 'lr0' and 'momentum' automatically... 
…
