…
perspective=1.5659963821372468e-05, flipud=0.5007879443031521, fliplr=0.8875793345253312, mosaic=0.6284067697912119, mixup=0.803400485139296, copy_paste=0.728448948354095, auto_augment=randaugment, erasing=0.4, crop_fraction=1.0, cfg=None, tracker=botsort.yaml, save_dir=runs/detect/train
[36m(_tune pid=75364)[0m Overriding model.yaml nc=80 with nc=1
[36m(_tune pid=75364)[0m 
[36m(_tune pid=75364)[0m                    from  n    params  module                                       arguments                     
[36m(_tune pid=75364)[0m   0                  -1  1      2320  ultralytics.nn.modules.conv.Conv             [3, 80, 3, 2]                 
[36m(_tune pid=75364)[0m   1                  -1  1    115520  ultralytics.nn.modules.conv.Conv             [80, 160, 3, 2]               
[36m(_tune pid=75364)[0m   2                  -1  3    436800  ultralytics.nn.modules.block.C2f             [160, 160, 3, True]           
[36m(_tune pid=75359)[0m   9                  -1  1   1025920  ultralytics.nn.modules.block.SPPF            [640, 640, 5]                 
[36m(_tune pid=75359)[0m  10                  -1  1         0  torch.nn.modules.upsampling.Upsample         [None, 2, 'nearest']          
[36m(_tune pid=75359)[0m  11             [-1, 6]  1         0  ultralytics.nn.modules.conv.Concat           [1]                           
[36m(_tune pid=75359)[0m  13                  -1  1         0  torch.nn.modules.upsampling.Upsample         [None, 2, 'nearest']          
[36m(_tune pid=75359)[0m  14             [-1, 4]  1         0  ultralytics.nn.modules.conv.Concat           [1]                           
[36m(_tune pid=75364)[0m  22        [15, 18, 21]  1   8718931  ultralytics.nn.modules.head.Detect           [1, [320, 640, 640]]          
[36m(_tune pid=75552)[0m Model summary: 365 layers, 68153571 parameters, 68153555 gradients, 258.1 GFLOPs
[36m(_tune pid=75370)[0m Transferred 589/595 items from pretrained weights
[36m(_tune pid=75371)[0m Freezing layer 'model.22.dfl.conv.weight'
[36m(_tune pid=75371)[0m New https://pypi.org/project/ultralytics/8.1.16 available 😃 Update with 'pip install -U ultralytics'[32m [repeated 7x across cluster][0m
…
30071177326430776, auto_augment=randaugment, erasing=0.4, crop_fraction=1.0, cfg=None, tracker=botsort.yaml, save_dir=runs/detect/train[32m [repeated 7x across cluster][0m
[36m(_tune pid=75552)[0m Overriding model.yaml nc=80 with nc=1[32m [repeated 7x across cluster][0m
[36m(_tune pid=75554)[0m [32m [repeated 47x across cluster][0m
[36m(_tune pid=75552)[0m                    from  n    params  module                                       arguments                     [32m [repeated 7x across cluster][0m
[36m(_tune pid=75552)[0m  19                  -1  1   3687680  ultralytics.nn.modules.conv.Conv             [640, 640, 3, 2]              [32m [repeated 54x across cluster][0m
[36m(_tune pid=75552)[0m   8                  -1  3   6969600  ultralytics.nn.modules.block.C2f             [640, 640, 3, True]           [32m [repeated 31x across cluster][0m
[36m(_tune pid=75552)[0m   9                  -1  1   1025920  ultralytics.nn.modules.block.SPPF            [640, 640, 5]                 [32m [repeated 7x across cluster][0m
[36m(_tune pid=75552)[0m  13                  -1  1         0  torch.nn.modules.upsampling.Upsample         [None, 2, 'nearest']          [32m [repeated 14x across cluster][0m
[36m(_tune pid=75552)[0m  20             [-1, 9]  1         0  ultralytics.nn.modules.conv.Concat           [1]                           [32m [repeated 30x across cluster][0m
[36m(_tune pid=75359)[0m Plotting labels to runs/detect/train/labels.jpg... 
[36m(_tune pid=75552)[0m  22        [15, 18, 21]  1   8718931  ultralytics.nn.modules.head.Detect           [1, [320, 640, 640]]          [32m [repeated 7x across cluster][0m
[36m(_tune pid=75359)[0m [34m[1moptimizer:[0m 'optimizer=auto' found, ignoring 'lr0=0.013239093368753391' and 'momentum=0.7974764322285762' and determining best 'optimizer', 'lr0' and 'momentum' automatically... 
[36m(_tune pid=75554)[0m Model summary: 365 layers, 68153571 parameters, 68153555 gradients, 258.1 GFLOPs[32m [repeated 7x across cluster][0m
…
Trial _tune_9d05f_00002 errored after 0 iterations at 2024-02-20 22:47:45. Total running time: 2min 34s
Error file: /home/jpfinley/ray_results/_tune_2024-02-20_22-45-10/_tune_9d05f_00002_2_box=0.0580,cls=2.0945,copy_paste=0.7841,degrees=38.0316,fliplr=0.9610,flipud=0.5811,hsv_h=0.0610,hsv_s=0.7491,_2024-02-20_22-45-11/error.txt
[36m(_tune pid=78660)[0m Overriding model.yaml nc=80 with nc=1
[36m(_tune pid=78660)[0m 
[36m(_tune pid=78660)[0m                    from  n    params  module                                       arguments                     
[36m(_tune pid=78660)[0m   0                  -1  1      2320  ultralytics.nn.modules.conv.Conv             [3, 80, 3, 2]                 
[36m(_tune pid=78660)[0m   1                  -1  1    115520  ultralytics.nn.modules.conv.Conv             [80, 160, 3, 2]               
[36m(_tune pid=78660)[0m   2                  -1  3    436800  ultralytics.nn.modules.block.C2f             [160, 160, 3, True]           
[36m(_tune pid=78660)[0m   3                  -1  1    461440  ultralytics.nn.modules.conv.Conv             [160, 320, 3, 2]              
[36m(_tune pid=78660)[0m   4                  -1  6   3281920  ultralytics.nn.modules.block.C2f             [320, 320, 6, True]           
[36m(_tune pid=78660)[0m   5                  -1  1   1844480  ultralytics.nn.modules.conv.Conv             [320, 640, 3, 2]              
[36m(_tune pid=78660)[0m   6                  -1  6  13117440  ultralytics.nn.modules.block.C2f             [640, 640, 6, True]           
[36m(_tune pid=78660)[0m   7                  -1  1   3687680  ultralytics.nn.modules.conv.Conv             [640, 640, 3, 2]              
[36m(_tune pid=78660)[0m   8                  -1  3   6969600  ultralytics.nn.modules.block.C2f             [640, 640, 3, True]           
[36m(_tune pid=78660)[0m   9                  -1  1   1025920  ultralytics.nn.modules.block.SPPF            [640, 640, 5]                 
[36m(_tune pid=78660)[0m  10                  -1  1         0  torch.nn.modules.upsampling.Upsample         [None, 2, 'nearest']          
[36m(_tune pid=78660)[0m  11             [-1, 6]  1         0  ultralytics.nn.modules.conv.Concat           [1]                           
[36m(_tune pid=78660)[0m  12                  -1  3   7379200  ultralytics.nn.modules.block.C2f             [1280, 640, 3]                
[36m(_tune pid=78660)[0m  13                  -1  1         0  torch.nn.modules.upsampling.Upsample         [None, 2, 'nearest']          
[36m(_tune pid=78660)[0m  14             [-1, 4]  1         0  ultralytics.nn.modules.conv.Concat           [1]                           
[36m(_tune pid=78660)[0m  15                  -1  3   1948800  ultralytics.nn.modules.block.C2f             [960, 320, 3]                 
[36m(_tune pid=78660)[0m  16                  -1  1    922240  ultralytics.nn.modules.conv.Conv             [320, 320, 3, 2]              
[36m(_tune pid=78660)[0m  17            [-1, 12]  1         0  ultralytics.nn.modules.conv.Concat           [1]                           
[36m(_tune pid=78660)[0m  18                  -1  3   7174400  ultralytics.nn.modules.block.C2f             [960, 640, 3]                 
[36m(_tune pid=78660)[0m  19                  -1  1   3687680  ultralytics.nn.modules.conv.Conv             [640, 640, 3, 2]              
[36m(_tune pid=78660)[0m  20             [-1, 9]  1         0  ultralytics.nn.modules.conv.Concat           [1]                           
[36m(_tune pid=78660)[0m  21                  -1  3   7379200  ultralytics.nn.modules.block.C2f             [1280, 640, 3]                
[36m(_tune pid=78660)[0m  22        [15, 18, 21]  1   8718931  ultralytics.nn.modules.head.Detect           [1, [320, 640, 640]]          
[36m(_tune pid=78660)[0m Model summary: 365 layers, 68153571 parameters, 68153555 gradients, 258.1 GFLOPs
[36m(_tune pid=78660)[0m 
[36m(_tune pid=78660)[0m Transferred 589/595 items from pretrained weights

Trial _tune_9d05f_00009 started with configuration:
╭────────────────────────────────────────────────╮
│ Trial _tune_9d05f_00009 config                 │
├────────────────────────────────────────────────┤
…
