…
pective=0.0007730734917595477, flipud=0.9897413159791743, fliplr=0.8505106751382194, mosaic=0.8285554841514617, mixup=0.053107479020022996, copy_paste=0.12778295921221883, auto_augment=randaugment, erasing=0.4, crop_fraction=1.0, cfg=None, tracker=botsort.yaml, save_dir=runs/detect/train
[36m(_tune pid=79572)[0m Overriding model.yaml nc=80 with nc=1
[36m(_tune pid=79572)[0m 
[36m(_tune pid=79572)[0m                    from  n    params  module                                       arguments                     
[36m(_tune pid=79572)[0m   0                  -1  1      1392  ultralytics.nn.modules.conv.Conv             [3, 48, 3, 2]                 
[36m(_tune pid=79572)[0m   1                  -1  1     41664  ultralytics.nn.modules.conv.Conv             [48, 96, 3, 2]                
[36m(_tune pid=79572)[0m   2                  -1  2    111360  ultralytics.nn.modules.block.C2f             [96, 96, 2, True]             
[36m(_tune pid=79572)[0m   3                  -1  1    166272  ultralytics.nn.modules.conv.Conv             [96, 192, 3, 2]               
[36m(_tune pid=79572)[0m   9                  -1  1    831168  ultralytics.nn.modules.block.SPPF            [576, 576, 5]                 
[36m(_tune pid=79572)[0m  10                  -1  1         0  torch.nn.modules.upsampling.Upsample         [None, 2, 'nearest']          
[36m(_tune pid=79572)[0m  11             [-1, 6]  1         0  ultralytics.nn.modules.conv.Concat           [1]                           
[36m(_tune pid=79572)[0m  13                  -1  1         0  torch.nn.modules.upsampling.Upsample         [None, 2, 'nearest']          
[36m(_tune pid=79572)[0m  14             [-1, 4]  1         0  ultralytics.nn.modules.conv.Concat           [1]                           
[36m(_tune pid=79572)[0m  17            [-1, 12]  1         0  ultralytics.nn.modules.conv.Concat           [1]                           
[36m(_tune pid=79572)[0m  20             [-1, 9]  1         0  ultralytics.nn.modules.conv.Concat           [1]                           
[36m(_tune pid=79603)[0m  22        [15, 18, 21]  1   3776275  ultralytics.nn.modules.head.Detect           [1, [192, 384, 576]]          
[36m(_tune pid=79572)[0m Model summary: 295 layers, 25856899 parameters, 25856883 gradients, 79.1 GFLOPs
[36m(_tune pid=79572)[0m Transferred 469/475 items from pretrained weights
[36m(_tune pid=79596)[0m Freezing layer 'model.22.dfl.conv.weight'
[36m(_tune pid=79611)[0m New https://pypi.org/project/ultralytics/8.1.16 available 😃 Update with 'pip install -U ultralytics'[32m [repeated 7x across cluster][0m
…
g=None, tracker=botsort.yaml, save_dir=runs/detect/train[32m [repeated 7x across cluster][0m
[36m(_tune pid=79572)[0m Plotting labels to runs/detect/train/labels.jpg... 
[36m(_tune pid=79611)[0m Overriding model.yaml nc=80 with nc=1[32m [repeated 7x across cluster][0m
[36m(_tune pid=79611)[0m [32m [repeated 47x across cluster][0m
[36m(_tune pid=79611)[0m                    from  n    params  module                                       arguments                     [32m [repeated 7x across cluster][0m
[36m(_tune pid=79611)[0m  19                  -1  1   1327872  ultralytics.nn.modules.conv.Conv             [384, 384, 3, 2]              [32m [repeated 53x across cluster][0m
[36m(_tune pid=79611)[0m   8                  -1  2   3985920  ultralytics.nn.modules.block.C2f             [576, 576, 2, True]           [32m [repeated 31x across cluster][0m
[36m(_tune pid=79611)[0m   9                  -1  1    831168  ultralytics.nn.modules.block.SPPF            [576, 576, 5]                 [32m [repeated 7x across cluster][0m
[36m(_tune pid=79611)[0m  13                  -1  1         0  torch.nn.modules.upsampling.Upsample         [None, 2, 'nearest']          [32m [repeated 14x across cluster][0m
[36m(_tune pid=79611)[0m  20             [-1, 9]  1         0  ultralytics.nn.modules.conv.Concat           [1]                           [32m [repeated 28x across cluster][0m
[36m(_tune pid=79611)[0m  22        [15, 18, 21]  1   3776275  ultralytics.nn.modules.head.Detect           [1, [192, 384, 576]]          [32m [repeated 7x across cluster][0m
[36m(_tune pid=79572)[0m [34m[1moptimizer:[0m 'optimizer=auto' found, ignoring 'lr0=0.007873978779296178' and 'momentum=0.6857232840632355' and determining best 'optimizer', 'lr0' and 'momentum' automatically... 
[36m(_tune pid=79572)[0m [34m[1moptimizer:[0m AdamW(lr=0.002, momentum=0.9) with parameter groups 77 weight(decay=0.0), 84 weight(decay=0.0006575748906653115), 83 bias(decay=0.0)
…
708, shear=4.06876872065236, perspective=0.000336021729936811, flipud=0.6820405519906722, fliplr=0.2680816937916478, mosaic=0.9002401732805863, mixup=0.728008398728581, copy_paste=0.9170267505806612, auto_augment=randaugment, erasing=0.4, crop_fraction=1.0, cfg=None, tracker=botsort.yaml, save_dir=runs/detect/train
[36m(_tune pid=79572)[0m Overriding model.yaml nc=80 with nc=1
[36m(_tune pid=79572)[0m                    from  n    params  module                                       arguments                     
[36m(_tune pid=79572)[0m   0                  -1  1      1392  ultralytics.nn.modules.conv.Conv             [3, 48, 3, 2]                 
[36m(_tune pid=79572)[0m   1                  -1  1     41664  ultralytics.nn.modules.conv.Conv             [48, 96, 3, 2]                
[36m(_tune pid=79572)[0m   2                  -1  2    111360  ultralytics.nn.modules.block.C2f             [96, 96, 2, True]             
[36m(_tune pid=79572)[0m   3                  -1  1    166272  ultralytics.nn.modules.conv.Conv             [96, 192, 3, 2]               
[36m(_tune pid=79572)[0m   4                  -1  4    813312  ultralytics.nn.modules.block.C2f             [192, 192, 4, True]           
[36m(_tune pid=79572)[0m   5                  -1  1    664320  ultralytics.nn.modules.conv.Conv             [192, 384, 3, 2]              
[36m(_tune pid=79572)[0m   6                  -1  4   3248640  ultralytics.nn.modules.block.C2f             [384, 384, 4, True]           
[36m(_tune pid=79572)[0m   7                  -1  1   1991808  ultralytics.nn.modules.conv.Conv             [384, 576, 3, 2]              
[36m(_tune pid=79572)[0m   8                  -1  2   3985920  ultralytics.nn.modules.block.C2f             [576, 576, 2, True]           
[36m(_tune pid=79572)[0m   9                  -1  1    831168  ultralytics.nn.modules.block.SPPF            [576, 576, 5]                 
[36m(_tune pid=79572)[0m  10                  -1  1         0  torch.nn.modules.upsampling.Upsample         [None, 2, 'nearest']          
[36m(_tune pid=79572)[0m  11             [-1, 6]  1         0  ultralytics.nn.modules.conv.Concat           [1]                           
[36m(_tune pid=79572)[0m  13                  -1  1         0  torch.nn.modules.upsampling.Upsample         [None, 2, 'nearest']          
[36m(_tune pid=79572)[0m  14             [-1, 4]  1         0  ultralytics.nn.modules.conv.Concat           [1]                           
[36m(_tune pid=79572)[0m  16                  -1  1    332160  ultralytics.nn.modules.conv.Conv             [192, 192, 3, 2]              
[36m(_tune pid=79572)[0m  17            [-1, 12]  1         0  ultralytics.nn.modules.conv.Concat           [1]                           
[36m(_tune pid=79572)[0m  19                  -1  1   1327872  ultralytics.nn.modules.conv.Conv             [384, 384, 3, 2]              
[36m(_tune pid=79572)[0m  20             [-1, 9]  1         0  ultralytics.nn.modules.conv.Concat           [1]                           
[36m(_tune pid=79572)[0m  22        [15, 18, 21]  1   3776275  ultralytics.nn.modules.head.Detect           [1, [192, 384, 576]]          
[36m(_tune pid=79572)[0m Model summary: 295 layers, 25856899 parameters, 25856883 gradients, 79.1 GFLOPs
[36m(_tune pid=79572)[0m Transferred 469/475 items from pretrained weights
[36m(_tune pid=79593)[0m 30 epochs completed in 0.525 hours.
[36m(_tune pid=79593)[0m Optimizer stripped from runs/detect/train/weights/last.pt, 52.0MB
[36m(_tune pid=79593)[0m Optimizer stripped from runs/detect/train/weights/best.pt, 52.0MB
…
rspective=0.000776018895203354, flipud=0.27871214575634207, fliplr=0.42835518630193814, mosaic=0.8716202796652113, mixup=0.9883000570588982, copy_paste=0.7217287606025053, auto_augment=randaugment, erasing=0.4, crop_fraction=1.0, cfg=None, tracker=botsort.yaml, save_dir=runs/detect/train
[36m(_tune pid=79587)[0m Overriding model.yaml nc=80 with nc=1
[36m(_tune pid=79587)[0m 
[36m(_tune pid=79587)[0m                    from  n    params  module                                       arguments                     
[36m(_tune pid=79587)[0m   0                  -1  1      1392  ultralytics.nn.modules.conv.Conv             [3, 48, 3, 2]                 
[36m(_tune pid=79587)[0m   1                  -1  1     41664  ultralytics.nn.modules.conv.Conv             [48, 96, 3, 2]                
[36m(_tune pid=79587)[0m   2                  -1  2    111360  ultralytics.nn.modules.block.C2f             [96, 96, 2, True]             
[36m(_tune pid=79587)[0m   3                  -1  1    166272  ultralytics.nn.modules.conv.Conv             [96, 192, 3, 2]               
[36m(_tune pid=79587)[0m   4                  -1  4    813312  ultralytics.nn.modules.block.C2f             [192, 192, 4, True]           
[36m(_tune pid=79587)[0m   5                  -1  1    664320  ultralytics.nn.modules.conv.Conv             [192, 384, 3, 2]              
[36m(_tune pid=79587)[0m   6                  -1  4   3248640  ultralytics.nn.modules.block.C2f             [384, 384, 4, True]           
[36m(_tune pid=79587)[0m   7                  -1  1   1991808  ultralytics.nn.modules.conv.Conv             [384, 576, 3, 2]              
[36m(_tune pid=79587)[0m   8                  -1  2   3985920  ultralytics.nn.modules.block.C2f             [576, 576, 2, True]           
[36m(_tune pid=79587)[0m   9                  -1  1    831168  ultralytics.nn.modules.block.SPPF            [576, 576, 5]                 
[36m(_tune pid=79587)[0m  10                  -1  1         0  torch.nn.modules.upsampling.Upsample         [None, 2, 'nearest']          
[36m(_tune pid=79587)[0m  11             [-1, 6]  1         0  ultralytics.nn.modules.conv.Concat           [1]                           
[36m(_tune pid=79587)[0m  12                  -1  2   1993728  ultralytics.nn.modules.block.C2f             [960, 384, 2]                 
[36m(_tune pid=79587)[0m  13                  -1  1         0  torch.nn.modules.upsampling.Upsample         [None, 2, 'nearest']          
[36m(_tune pid=79587)[0m  14             [-1, 4]  1         0  ultralytics.nn.modules.conv.Concat           [1]                           
[36m(_tune pid=79587)[0m  15                  -1  2    517632  ultralytics.nn.modules.block.C2f             [576, 192, 2]                 
[36m(_tune pid=79587)[0m  16                  -1  1    332160  ultralytics.nn.modules.conv.Conv             [192, 192, 3, 2]              
[36m(_tune pid=79587)[0m  17            [-1, 12]  1         0  ultralytics.nn.modules.conv.Concat           [1]                           
[36m(_tune pid=79587)[0m  18                  -1  2   1846272  ultralytics.nn.modules.block.C2f             [576, 384, 2]                 
[36m(_tune pid=79587)[0m  19                  -1  1   1327872  ultralytics.nn.modules.conv.Conv             [384, 384, 3, 2]              
[36m(_tune pid=79587)[0m  20             [-1, 9]  1         0  ultralytics.nn.modules.conv.Concat           [1]                           
[36m(_tune pid=79587)[0m  21                  -1  2   4207104  ultralytics.nn.modules.block.C2f             [960, 576, 2]                 
[36m(_tune pid=79587)[0m  22        [15, 18, 21]  1   3776275  ultralytics.nn.modules.head.Detect           [1, [192, 384, 576]]          
[36m(_tune pid=79587)[0m Model summary: 295 layers, 25856899 parameters, 25856883 gradients, 79.1 GFLOPs
[36m(_tune pid=79587)[0m 
[36m(_tune pid=79587)[0m Transferred 469/475 items from pretrained weights
[36m(_tune pid=79587)[0m Freezing layer 'model.22.dfl.conv.weight'
[36m(_tune pid=79587)[0m Plotting labels to runs/detect/train/labels.jpg... 
[36m(_tune pid=79611)[0m Speed: 2.2ms preprocess, 976.5ms inference, 0.0ms loss, 0.5ms postprocess per image
…
